checkpoint_2021-04-25_11-13-43.pth (torch_old, 28393 bytes, 6 tensors)

fc1.weight f4 [64, 37]
00000000: c97c 87bd 2bc4 56be f9e7 1ebe e379 693e
00000010: f842 4fbe dc0a 8e3d 0c1f 043e 400d 203e
00000020: 37f8 153e cbeb f13c 7fcb 103e 7f6e 96bc
00000030: cce8 0d3e a2f1 713c f137 eb3c 23a7 2abc
00000040: 9afe 373e c01e 4ebc 1b24 363e a032 433d
00000050: 6f09 01bc 397a babd 5b52 80bc 54a4 52bc
00000060: 34b3 ee3c 30cc c13d cd08 e23d 96f4 333e
00000070: 48d5 373e f7f4 8c3d 6cac a13e d6bc bfbe
00000080: d8be 06be 5790 dfbe d0d4 adbf dbb0 c6ba
00000090: 34e2 0d3c 6cf6 bb3c c2fd 363d d366 15be
000000a0: 66b5 c93d a092 82be 9702 d03c 6eca 1dbe
000000b0: 574c e03c aa87 5ebc 1ca4 56be 8eae 9b3e
000000c0: c20c 23be fc84 b63b 1233 22be 5a74 3fbf
000000d0: 22dc a03d deff 123e 35aa 80bd 83f9 d83d
000000e0: 5467 733d dfef 02be d89f 343e 841e 09be
000000f0: f3e8 f33d db2f 0abe d176 17be 2e7e 0cbe
00000100: 6547 3abd d027 3b3e 6dbe 7dbe 65e7 b6bd
00000110: 33ca 20bc 3310 0bbe 37d4 1cbd 513a 1bbe
00000120: 539b debd 7191 96bd f756 7d3e 994e 58be
00000130: 3614 61be 3b7e 36be 8758 9bbe bb07 19be
00000140: 9112 1b3d c5ed 403d 1855 8f3d c5b5 ea3e
00000150: 858a ab3d e803 44bd 7425 1c3e 6286 7dbd
00000160: 19d3 803d 8f54 773e f7b6 fcbe 668b 39be
00000170: 346f 36be 4f1f f5be b8f0 fcbd 2193 303d
00000180: 408c fdbd 2e71 00be 4d24 5d3d 0edc 4ebe
00000190: 88de 2a3e b309 41bd 0e29 a5bd 5818 b7bd
000001a0: 1913 893d ffe9 74bd 0075 6fbd 0965 0fbe
000001b0: 5dd0 0ebe 0a41 f7bd f63c 563d f9e8 36bd
000001c0: d1ac 953d 8332 9abb 03c4 1abd 429a 3a3d
000001d0: 9011 163d 2913 bb3d f1df 073e 00a7 3f3d
000001e0: 58be 273e fdfd f93e 5bf2 15bf 7b97 9bbd
000001f0: 6366 c1bd 4bd4 88bf 7764 1ebe 6f2a c13d
00000200: fe4d 783d d2e0 5ebc b1fb 323e 0da9 68be
00000210: 0db8 523d 975b 96bc 75c0 06bc c707 d23d
00000220: 4c57 ee3c 0708 873d 49fe 5a3d a2d3 643e
00000230: fe1d e63d 6fd7 a13d d2fb f73d a222 043e
00000240: 6bcc babd 1760 14be bc52 53bd ce19 3a3b
00000250: f5f6 8fbd a25c 1a3e 089c e1bc ab61 eebd
00000260: 9085 143d 95d0 07bd 7769 0ebe 0f73 4a3d
00000270: 17f1 973e 565a 963e 333a ec3a 896e 393c
00000280: 6e21 b13d ff85 123e b383 683e 05da 363e
00000290: 9217 d13c 0da2 63bd 6cb6 40bd 80b8 03be
000002a0: e919 61be ed6c 48bd b98b 803e 3383 55be
000002b0: 6215 543d ff37 cd3c 6a75 373d faed 22be
000002c0: 115d 0cbd 9f92 57bd 53aa 56be b714 493e
000002d0: da65 9d3d 9f38 ad3d 5077 4dbd dc58 2e3e
000002e0: 7c6e 473c c3e8 d6bc df24 9d3d d6f7 8c3d
000002f0: 90e4 363e f4af 9a3e 7ed0 30bd 88e6 963e
00000300: 3847 6ebd b01b 173e d586 183e f5f5 ce3b
00000310: e5d5 57bb 88ea 88bc 54dc 843e bed2 9c3e
00000320: c460 bfbc 460a 8a3e 607c 4dbd e7e0 dc3d
00000330: 5e28 703d d7ef 25be 27b9 993e 69fc 953c
00000340: 35bf 31be 5138 463e ca83 1bbc de19 3abd
00000350: d8f4 51bb d07d 0d3e 3a8c cabe c880 6abe
00000360: 3dc0 22be 9cfc babb f4fd c33d c45c d93e
00000370: 1523 81bd b1b4 583d 7820 283d 2618 83be
00000380: 0ade cabd 4a11 5a3d 60fe a6be 8284 0fbc
00000390: c614 103e b732 09be 5927 30be d9b6 733e
000003a0: 9afe 16bd 2854 143d 7b6b 9bbe d574 d9bd
000003b0: 1612 293b ff06 e8bd 652b 1d3e 3c33 a5bd
000003c0: df03 02be c9ca 19be d152 593e c475 8fbd
000003d0: c2da 6fbe 3e09 aabd 4b98 bb3d e062 bb3d
000003e0: 8b5f a2be c1f7 c33d 0097 22be c2d3 2ebe
000003f0: 07a5 f43d 570d 4f3d ac05 80be bdd4 b5bc
-0.06615598 -0.2097327 -0.15518178 0.22800402 -0.2024039 0.06935665 0.12902468 0.15630054
0.14645468 0.02953138 0.14140128 -0.018363236 0.13858336 0.014767082 0.028713198 -0.010415825
0.17968217 -0.012580574 0.1778721 0.0476557 -0.007875784 -0.09105343 -0.01566427 -0.012856562
0.029138185 0.09462774 0.11036835 0.17573771 0.17952454 0.06882661 0.3157686 -0.37448758
-0.13158739 -0.4366481 -1.358057 -0.0015158908 0.008659888 0.022944652 0.044675596 -0.14590006
0.09849052 -0.2550249 0.02539186 -0.15409252 0.027380152 -0.0135821495 -0.2096104 0.30406612
-0.15922835 0.005570052 -0.15839794 -0.74786913 0.07854487 0.14355418 -0.062824644 0.105944656
0.059424713 -0.12786816 0.176391 -0.13390547 0.11909666 -0.13494818 -0.14791419 -0.13720009
-0.045478243 0.18276906 -0.24779673 -0.08930854 -0.009813833 -0.13580398 -0.03828832 -0.15158965
-0.108694695 -0.073519595 0.24740206 -0.21123733 -0.21980366 -0.1782159 -0.30340979 -0.14944355
0.037859503 0.047101755 0.06998652 0.45841804 0.0837603 -0.047855288 0.15248662 -0.061895736
0.06290264 0.2415335 -0.4935834 -0.18119583 -0.17815858 -0.4787545 -0.12350601 0.043109063
-0.12380266 -0.12543175 0.053989697 -0.20201132 0.16686451 -0.04712839 -0.08064471 -0.0894019
0.06693096 -0.05979347 -0.05846119 -0.14003386 -0.13946672 -0.12072952 0.05230423 -0.044655774
0.07308353 -0.0047057285 -0.037784588 0.045557268 0.036637843 0.09134514 0.1326902 0.046790123
0.16381204 0.4882659 -0.5857293 -0.07597252 -0.09443357 -1.0689787 -0.15468012 0.09431922
0.060621254 -0.013603406 0.17478825 -0.22720738 0.051445056 -0.01835422 -0.008224596 0.1025539
0.02909436 0.06593328 0.05346516 0.22346357 0.11236189 0.07902419 0.12108578 0.12903836
-0.09121021 -0.1448978 -0.051592574 0.0028396728 -0.07029525 0.15074399 -0.027540222 -0.116397224
0.036260188 -0.033157904 -0.13907419 0.049426135 0.29676124 0.29365796 0.0018022716 0.011317858
0.08648954 0.14308928 0.2270649 0.17856605 0.025523935 -0.055574466 -0.04704897 -0.1286335
-0.2198254 -0.048932005 0.251066 -0.2085083 0.051778205 0.025051115 0.04478971 -0.15911093
-0.034268443 -0.052630063 -0.20963411 0.19636808 0.07685442 0.08458065 -0.050162613 0.17026085
0.012172338 -0.026234036 0.07673048 0.068832085 0.17860627 0.30212367 -0.043167584 0.29472756
-0.05817339 0.14756656 0.14895184 0.0063159415 -0.0032933888 -0.016713396 0.25949347 0.30629534
-0.023361571 0.26960963 -0.05016744 0.10785084 0.058632247 -0.16204773 0.30024073 0.018308835
-0.17358096 0.1935742 -0.00949187 -0.045434825 -0.0032036807 0.13817525 -0.3956011 -0.22900689
-0.15893646 -0.005706383 0.09569922 0.42453587 -0.063055195 0.052906696 0.04104659 -0.2560436
-0.09905632 0.053239144 -0.32615948 -0.00875962 0.14070424 -0.13398252 -0.1720251 0.2380022
-0.0368639 0.03621307 -0.3035544 -0.10617987 0.0025798134 -0.113294594 0.15348585 -0.08066413
-0.12696789 -0.15018763 0.21222998 -0.07004884 -0.23423293 -0.08302544 0.09159907 0.09149718
-0.31713519 0.0956874 -0.15877914 -0.17072967 0.11945539 0.05054983 -0.25004327 -0.022196168

fc1.bias f4 [64]
00000000: b40b de3c 3963 0f3e 9186 ce3d 7dca 07be
00000010: 2d6b 6c3c 3072 7cbc a981 09be eb17 293e
00000020: 13de 19be 80dd 3bbe c572 233e 2910 283d
00000030: 93fb 1abe b268 2fbc a846 d23d 8d16 a63d
00000040: 77c1 15be 5e5c 553e bdb0 db3d 0739 41be
00000050: a157 9dbd 3f3b 1c3e 9ad1 5cbe 95a6 babd
00000060: 020a b93d 2adb f3bd 0b4b 03be 2c90 bdbc
00000070: 447b 193e ba46 183e fe66 df3d 09a3 803c
00000080: 61dc b6bd 2ed2 abbd 0212 86bc 0b58 36be
00000090: ace9 a83d 4bbc f53c 903e 0bbe 1af9 28bd
000000a0: 7ff0 51be e0e5 6d3d 3c73 a23d 90e9 8d3d
000000b0: 507d a1bd b320 6dbc 52dd 0c3e 8672 ad3d
000000c0: 36f7 a43d 6f0a 08bd c59f 85bc cad0 a6bd
000000d0: 0362 4a3b 41f9 ef3d 8342 953d 2b04 343e
000000e0: 6c4e 12be 18f8 2f3e d0e6 333d 8c67 4d3e
000000f0: d7ce e9bd c0ac ebbc 0bea 2e3e 7b76 d2bc
0.02710519 0.14002694 0.1008426 -0.13260837 0.01442985 -0.015408084 -0.13428368 0.1651303
-0.15026121 -0.18346214 0.1596175 0.041031037 -0.1513503 -0.010706114 0.10267383 0.0810977
-0.14624582 0.20836017 0.107270695 -0.1886941 -0.076827295 0.15256976 -0.21564332 -0.09113804
0.09035112 -0.119070366 -0.12821595 -0.023140036 0.14988428 0.1487073 0.10908316 0.015702741
-0.08928753 -0.08389698 -0.016366009 -0.17807023 0.082476944 0.029997012 -0.13598084 -0.041253187
-0.20501898 0.058080554 0.079321355 0.06929314 -0.078852296 -0.014473128 0.13756302 0.08469109
0.08054964 -0.033213075 -0.016311536 -0.08145292 0.0030881173 0.11717463 0.07288077 0.17579715
-0.14287728 0.17184484 0.04392129 0.20059031 -0.11416405 -0.028768897 0.17081468 -0.025691262

fc2.weight f4 [64, 64]
00000000: 2096 2f3c 7e60 cfbc 471a b23d d17d efbd
00000010: 1efa 36be b9bc 04bd aeae 693d b6a1 503d
00000020: 83d7 41bd 78b0 2b3d 6f54 ae3c 0e8d 53be
00000030: 22af adbd 6438 903d 89ce aabd dd31 753d
00000040: 6a89 ca3d 6d8e a2ba e77b bfbb 9357 363d
00000050: fa68 2cbe 106f 04bd c336 623c 44b5 11be
00000060: 2834 10bd ee93 0fbe 506c 3d3d 8e6a 66be
00000070: d87b c53d f67e a13e b438 923e b008 97bb
00000080: cc6a 8a3d 19d8 1f3d 5405 aa3b 691a ad3d
00000090: daf3 0d3c 5d48 0dbe 887f 673d 1991 e23c
000000a0: 8176 94be cde8 51bb 5e38 93bd e430 8bbd
000000b0: 84a4 85be bf26 f2bd 3118 143e 5f4e 133e
000000c0: 1e67 76bc 70f9 77be ceec 8e3d 3d99 70be
000000d0: f7b6 af3c 8b76 e23c 41d3 913d 148d 4e3c
000000e0: a438 5bbd 45d0 e13c e769 8bbc 67b7 87bd
000000f0: 9b72 033e 2aaa 24be 59c4 1fbd 1562 fe3b
00000100: ec45 07be c24d 7d3e 41fa 1f3e 72ed 95ba
00000110: 6fbb b7be 173a 26be 0468 a4be dedf 213e
00000120: 6d47 be3d 8586 58be df9b 623d 9c05 9bbd
00000130: 1073 8cbd 52b1 273e 4d52 d53d f205 17bf
00000140: 6b06 ccbe 1056 02be d968 03be 0ae0 3dbe
00000150: 8742 b1bd 5c33 443e db83 36be f106 e2bd
00000160: 3450 90be cc65 6abe b4d9 5dbe 3f9b 45be
00000170: 0755 c43d 47c3 b73d e988 8dbd fe6a 9c3e
00000180: 4a09 edbd e2ce 03bf 8b2d 073e 49b2 c0bd
00000190: 3783 46be 1ee0 b9bd 28e8 febe 06e6 f6bd
000001a0: c9ef 46bd 27e2 73be 24d2 653e 4fdd c03c
000001b0: f55d b5bd 4f83 9bbe a0ed 70bc 0924 023e
000001c0: 350f 5abd f49a 073e a1f5 373d 4758 b93e
000001d0: 5fbe e33d 4f02 183d 2ae1 80be 435d a3bc
000001e0: c94f df3d f12e f0bc 5dcf 51be 8e05 94bd
000001f0: 3b5b 45be 72a2 b2bc 250c 05be f5dc 653d
00000200: c511 a73d 41c0 9fbd d208 3e3e d0cc 123e
00000210: 427f 893d da07 653e f494 dcbc f750 dc3d
00000220: 6b74 053e 98f7 ae3d 16e6 803d 10f3 143e
00000230: b571 ee3d 7450 2cbc a1d3 5a3e c26b 2e3e
00000240: 9392 573e b7df 413e c33f 5f3d 140f 263e
00000250: aeef 333e 81e4 cfbe 3a90 883d 3ab9 6dbe
00000260: e3e5 4f3e 6f30 f23d d35c 213e e55e 44bb
00000270: d0bf 843e 2900 643e 1f20 9c3d 3cdd cdbd
00000280: 77ae 0f3c fb93 9b3c ab0a 633c 55df 99bb
00000290: 040a 393d 24e6 fe3d 957d 5cbc 8bfd 3d3e
000002a0: dabf ecbb b82f 0d3e 0ffb 183e ea2f ad3d
000002b0: 8fdd 083e d990 75bc 6d0c f73d d5f6 b6bd
000002c0: 859a 153d b9ad 5c3e e6d8 063e 3234 a03e
000002d0: 5cb5 533e e669 b73d 5337 dcbd 981e 853e
000002e0: 4620 c93d 4e5d 543d 17ae 86bd bc63 3c3e
000002f0: e793 0d3b 0c98 a1bb 40a7 e33e 6e6a 123d
00000300: eee8 24bd dc68 dfbd f17c 10bd d719 1dbe
00000310: 2e19 46bd 6082 8e3d a881 d6bd 4644 a53d
00000320: 01d3 0b3d 78e9 01be d9f4 aabe 07f8 e63d
00000330: 9d32 47be 4361 50be ed68 913e 3e5a 6abd
00000340: 2300 bfbe 66a1 3e3e 5db5 063e 2440 e4bd
00000350: 00e9 373d 7849 18be c396 233e a64f 8fbd
00000360: 64a2 d03c 6d10 4a3d 2aff e5bd 939b 95bd
00000370: 5563 08bd 81a2 603d bab3 99bd d751 24be
00000380: 5c63 69be 4d74 e93d a507 9cbc a24b 09be
00000390: 3305 14be f5d1 823d 6478 5d3e 69a2 283c
000003a0: 7176 94be 0c18 5c3d 9462 b2be 7191 b0bd
000003b0: 2f52 843d 3576 603e 3c71 c73d 3e5d 14be
000003c0: 21d2 633e 1d22 5dbe ad22 2fbc 3756 8c3e
000003d0: 4b74 7dbe ad41 a13d 2181 92be b20e e1bc
000003e0: b72f 5dbd fc58 0a3e 5e01 563d 26bb 12bc
000003f0: 291b 6fbe 88ca 6abd f07a 093e 3463 453d
0.010716945 -0.025314566 0.08696418 -0.116939195 -0.1786885 -0.032406542 0.057051353 0.05093547
-0.04732467 0.04191634 0.021280495 -0.20659277 -0.084806696 0.07042006 -0.08340175 0.059862006
0.09889491 -0.0012402065 -0.0058436277 0.04451711 -0.1683692 -0.03233248 0.0138070015 -0.14229304
-0.03520599 -0.14021274 0.046245873 -0.22501585 0.09642762 0.31542176 0.28558886 -0.00460919
0.06758651 0.039024446 0.0051886234 0.08452303 0.008664096 -0.13797136 0.056518108 0.027657079
-0.2899666 -0.003202963 -0.071884856 -0.067964345 -0.26102078 -0.118237965 0.14462353 0.14385365
-0.0150392335 -0.24216247 0.06978761 -0.23495956 0.02144955 0.027644416 0.071203716 0.012606878
-0.053520814 0.027565131 -0.017018272 -0.06626778 0.12836687 -0.16080537 -0.03900561 0.007763157
-0.13210267 0.24736694 0.15622808 -0.0011438562 -0.35885188 -0.16233097 -0.32110608 0.15808055
0.09290967 -0.21145065 0.05532443 -0.07569429 -0.06857884 0.16376236 0.10416088 -0.58993447
-0.39848647 -0.12728143 -0.12832965 -0.18542495 -0.08655267 0.19160217 -0.17823736 -0.1103648
-0.2818619 -0.22890395 -0.21665078 -0.19297503 0.0958653 0.08972793 -0.06910879 0.3055038
-0.115740374 -0.51487553 0.13200967 -0.09409005 -0.19385992 -0.0907595 -0.49786496 -0.12055592
-0.04856852 -0.23816739 0.22443444 0.023543028 -0.088558115 -0.30373618 -0.014705092 0.12709059
-0.05323716 0.13242704 0.044911984 0.36200163 0.11120295 0.037111577 -0.25171787 -0.019941932
0.1090389 -0.029319258 -0.20489259 -0.07227622 -0.19273083 -0.021805976 -0.12992914 0.056118924
0.08157686 -0.078003414 0.18558052 0.14335942 0.067137256 0.22366276 -0.026926495 0.1075763
0.13032691 0.085433185 0.062938854 0.14545846 0.11642782 -0.010517228 0.21369793 0.17033294
0.21052007 0.18932997 0.054504167 0.1621669 0.175719 -0.40604022 0.06668134 -0.2321519
0.20302539 0.11825644 0.15758066 -0.0029963788 0.2592759 0.22265686 0.07623314 -0.10051963
0.008769623 0.018991461 0.013857524 -0.0046958127 0.045175567 0.124462396 -0.013457675 0.1855375
-0.007225019 0.13787735 0.14939521 0.084564045 0.13365768 -0.014988148 0.12062917 -0.08933798
0.036524314 0.21550645 0.13168678 0.31289822 0.20674652 0.089557454 -0.1075274 0.25999904
0.09820609 0.051846795 -0.06576174 0.1839742 0.002160305 -0.0049314555 0.4446354 0.03574603
-0.0402612 -0.10908672 -0.035275403 -0.15341888 -0.048363857 0.06958461 -0.10473949 0.08069663
0.034136776 -0.12686718 -0.3338993 0.11277776 -0.19452901 -0.20349602 0.28400365 -0.057214968
-0.37304792 0.18616256 0.13155122 -0.11145046 0.04489994 -0.14871776 0.1597548 -0.069976136
0.025468059 0.04933207 -0.11230309 -0.07305064 -0.033297855 0.054842476 -0.07504983 -0.16046844
-0.22791809 0.11399136 -0.019046614 -0.13407758 -0.14455108 0.063877024 0.21627957 0.010292628
-0.28996614 0.05373387 -0.34840834 -0.08621491 0.06460988 0.21920092 0.097383946 -0.14488694
0.22248127 -0.21595044 -0.01068942 0.27409527 -0.24751393 0.07873855 -0.28614143 -0.027472828
-0.054000583 0.13510507 0.052247398 -0.0089557525 -0.23350205 -0.057322055 0.13425803 0.04819031

fc2.bias f4 [64]
00000000: 5ea5 ec3b 30d2 683d 1c00 db3e 4ac1 48bd
00000010: 741e 993d 02f6 88bd ea45 c3bd 4e10 c9bc
00000020: 6f7a 18be f4fe 6f3e 0bcc 713c 74ba 41bd
00000030: 5765 25bd 30a8 3a3d e998 80bc 7d5a 473e
00000040: 5f6d 5dbd 193a d03d 6551 2dbe d166 813d
00000050: a715 0abd a9ac 8dbd 643c 1dbe f049 243d
00000060: 4050 51bd 9e93 1bbd 4842 21bd 6011 003d
00000070: bcd7 9e3c 64db 013e 59f3 13bd 8632 26bd
00000080: 150c 24be b312 6a3e b793 cd3b d604 cc3d
00000090: b200 ca3d a284 80bd c20d b2bd ba1a 853d
000000a0: 2c15 ee39 c8bb 853d e39e 06be fa34 563d
000000b0: ada6 3bbd c3b5 003c 8a8b d23d f2bd ae3d
000000c0: 7752 8fbd 7a05 b73d 016e 593c 74a5 9a3c
000000d0: ed6a 203e 9b46 e1bd da86 d93d 78c3 9bbc
000000e0: 696b 9c3d c3d5 653d 17fc e8bc 3feb 683c
000000f0: 40cd 0cbd acdc 07bc 4537 973d b1df 7a3e
0.0072218617 0.056841075 0.4277352 -0.04901246 0.074765116 -0.06687547 -0.095348194 -0.024543907
-0.14890455 0.234371 0.01475812 -0.047296956 -0.04037985 0.045570552 -0.015697913 0.19468112
-0.054059383 0.10167331 -0.16925581 0.06318439 -0.033712056 -0.06917698 -0.15355068 0.040109575
-0.051101923 -0.037982576 -0.03936985 0.03126657 0.01938998 0.12681347 -0.036120746 -0.040575527
-0.16020234 0.22858696 0.0062737125 0.0996186 0.09863414 -0.06275298 -0.0869403 0.06499238
0.00045410672 0.06529957 -0.13146548 0.052296616 -0.04581325 0.007855835 0.10280521 0.08532323
-0.06998151 0.089365914 0.013270856 0.018877722 0.15665789 -0.10999795 0.10621424 -0.019014105
0.07637674 0.056112062 -0.028440518 0.014216243 -0.03437543 -0.008292358 0.07383589 0.24499394

fc3.weight f4 [4, 64]
00000000: 02ca 013e c40c 9b3e f81e 423e 381c 2a3d
00000010: aa88 0ebe 9d9c 7e3e 5248 71be 8b28 a0be
00000020: bc4f 333e dc04 143e 696d 3dbe c881 babd
00000030: 4de0 d6be 9264 043e d36d 623e 44e5 8c3c
00000040: a9e3 063d 4280 e83d 9b72 50bd 8127 1cbd
00000050: 25a8 183e 2276 833d dcae c53e 0f6f 3e3e
00000060: 3257 653d c4e6 6b3c 91a4 b3be 313a a7be
00000070: 647c 733d 7fa3 043e d1c7 c9bd c453 973d
00000080: 0921 8a3e c228 363e 2e0b 813e c472 2e3d
00000090: 2987 3e3e 7524 8d3d 8ed3 153e e8df be3d
000000a0: b23d a7bd fd86 7c3d 7679 d33d e594 9a3d
000000b0: e6e7 11be b18e 003d f74a 6bbe 2fd7 4abe
000000c0: 1652 2dbb f1d8 c03c 7361 0fbf e018 c63d
000000d0: 484a a43d b80a f03d ef30 0a3e c7ec 27bd
000000e0: 6dc7 373e 40d2 eabd bf3e 273e 20b0 513d
000000f0: 2790 b43d d982 32bd 7859 963e bb3c 113e
00000100: 2190 733c 5da1 043f f5a0 203e 9f33 1abd
00000110: c515 37be 01f2 453e 931b 713d 60fb d9bd
00000120: 3d94 aebd 7046 0f3e f934 7bbe 6a8c c13e
00000130: bbd9 573e 0952 543e bbd7 d93e 7725 043d
00000140: c7ac 3a3d 30c1 ca3d f458 9ebd c127 133e
00000150: 504f 01be 8110 05be 66eb a03e def5 99bd
00000160: 781f 4d3d 8669 a63d 67fc 03bf 8117 bdbe
00000170: ce76 7e3d 38d3 363e fbb5 213d f927 48bd
00000180: bdf4 0f3e 7953 0d3e fef8 393d dfce 9b3d
00000190: ce86 7f3e cc80 febc 409a 133e 718b 773c
000001a0: 01fc 9dbe 0159 0e3e 2dc3 47be 6ba2 3dbe
000001b0: 39a5 48bd e748 753d e924 003d 5a0f 543e
000001c0: 2aad b0be 3fa0 1e3e 4da8 1abe cf75 c33d
000001d0: a5d3 d33d 5c68 393b 8c25 e3be 800b cbbe
000001e0: 9671 433e 9446 d1be b307 3d3e 955f f73d
000001f0: 93a7 d33e 96f9 263e e28d 823e 8426 0b3e
00000200: e1d6 2abe 12a0 ebbe 9e58 333e a80e 0d3e
00000210: a079 80be 0e89 b3bb 16c1 073d 3763 993d
00000220: aab0 f23c fa3d fd3d 21d4 1bbd e7a2 283a
00000230: 030d e3be b940 a03d 9d95 be3d ee27 0e3e
00000240: fc27 e4be ec9f 013e 52c4 9c3d b512 113e
00000250: 22f1 2f3e 0fed a23e e8bc 6cbd 3982 8d3d
00000260: dcb3 1cbe a408 e8bd 89e9 2cbd a739 ecbd
00000270: bced 85bd 42df 573d 1778 5bbd 965d 123f
00000280: b287 b4bd 9d20 463e ccb3 aabd b550 1d3e
00000290: 6137 873e e1f6 42be 7531 b93e 3cd9 a73d
000002a0: 5970 9bbd 2d36 663e 6090 b6be ab47 65be
000002b0: 3825 ca3d 2f7f dabe 9f6f 8a3d 3ef1 eb3e
000002c0: 0c3e 583e a2fb 4c3e b1e3 2abe 2545 873e
000002d0: 88ee a7bb 094c 073e d575 fabe 2e8e f23d
000002e0: 8232 5a3e 1776 6bbe b498 fbbc e21e 563e
000002f0: 794f d83c 8037 1bbe 0fe2 2b3e 3c9b 2b3e
00000300: ae0b 0a3e 7d78 f83d 35ff 6a3e 3031 9e3e
00000310: b430 cfbe c430 cf3e d89c 62be 1bc8 203e
00000320: fe25 133e e8be 013d 15d9 07be 176d e8bc
00000330: a256 a63d 5eec 3a3e c2a2 b0bd e159 983e
00000340: e0a4 013e 0dd5 d1bd 84fd 48be f11a a6bd
00000350: d6c6 be3e 34a3 d73d ddae a53e 2cf6 c1bd
00000360: 4257 6ebe dfb7 983e 506c 82bc c42c e3bd
00000370: 7b67 643e 997d 393e 1442 81be c0a3 a2bc
00000380: bc3d c7bd 63d4 073e 8c4c a33d 7548 31be
00000390: d6a9 4abd 235b 253e fa63 1d3d 5764 b6bd
000003a0: 24bb 9abd 53cc 4c3e d009 82be 796e dbbd
000003b0: 111a 0bbc 9464 46be ccbc 69be 3a06 0dbd
000003c0: a34b 7fbe 9a49 a43c 2a2c 24be 3e44 1e3e
000003d0: d8c9 dc3d c25d b63e 8d0c 2ebe c49c f9bd
000003e0: 834c 063e 23da 8fbe 6244 c9bd 3690 0fbc
000003f0: 6b94 4c3b b3a8 563d bf76 8b3c 6301 043d
0.12674716 0.30283177 0.18957126 0.041530818 -0.1391932 0.2486443 -0.23562744 -0.31280932
0.17510885 0.14454979 -0.18498768 -0.09106785 -0.41968003 0.1292899 0.22112207 0.017199166
0.032931957 0.11352588 -0.050890546 -0.03812361 0.14907892 0.064190164 0.3860997 0.18597053
0.05599136 0.0143982805 -0.35086492 -0.32661584 0.0594448 0.12952994 -0.09852565 0.07389024
0.2697833 0.17788985 0.25203842 0.042589918 0.18606247 0.06891719 0.14631483 0.093200505
-0.08166064 0.061652172 0.10325901 0.07547931 -0.14248618 0.03138608 -0.22977816 -0.19808649
-0.0026446632 0.023540946 -0.5600807 0.09672713 0.080219805 0.117207944 0.13495229 -0.040997293
0.17947169 -0.11465883 0.1633253 0.051193357 0.088165574 -0.043581817 0.29365134 0.14183323
0.014865906 0.5180872 0.156864 -0.037646886 -0.17879398 0.19330598 0.058864187 -0.10643649
-0.08524368 0.13991714 -0.24531926 0.3780244 0.21079151 0.20734419 0.42547402 0.03226229
0.04557493 0.09900129 -0.0773181 0.14370634 -0.12627912 -0.12994577 0.31429595 -0.075175986
0.05007884 0.08125596 -0.5155701 -0.36931995 0.06212502 0.17854011 0.03948019 -0.048866246
0.14058204 0.13801374 0.045403473 0.07607817 0.24953768 -0.031067275 0.1441431 0.015108929
-0.30856326 0.1390114 -0.19508047 -0.18518989 -0.048985694 0.05988398 0.0312852 0.20708981
-0.34507114 0.15490817 -0.15103264 0.095439546 0.10343102 0.0028290963 -0.44364583 -0.3965721
0.19086298 -0.4087416 0.18459968 0.12078778 0.41338786 0.16306147 0.25498873 0.13588911
-0.16683532 -0.4602056 0.17514274 0.13775122 -0.25092793 -0.0054789847 0.033143125 0.07489627
0.029625256 0.12365337 -0.0380441 0.0006432966 -0.44345865 0.07824845 0.0930588 0.1388242
-0.44561756 0.12658662 0.07654633 0.14167292 0.17181829 0.31821486 -0.057797343 0.069096036
-0.15302986 -0.11329773 -0.042214904 -0.11534434 -0.06539485 0.05270315 -0.053581323 0.5717405
-0.08814944 0.19348378 -0.08335075 0.15362819 0.26409438 -0.1903949 0.36170545 0.08195731
-0.07589788 0.22481604 -0.35657024 -0.2239062 0.0987038 -0.42675158 0.06759571 0.4608249
0.21117419 0.20017865 -0.1668842 0.2641994 -0.0051248707 0.13212599 -0.48918024 0.11843525
0.2130833 -0.22994266 -0.030712463 0.20910218 0.026405083 -0.1515789 0.16785453 0.16758436
0.13481018 0.12132356 0.22948916 0.30896902 -0.40466845 0.40466893 -0.22130144 0.15701334
0.14369962 0.031676203 -0.13266404 -0.02837233 0.08121993 0.1825423 -0.086247936 0.29756072
0.12660551 -0.10245714 -0.19627959 -0.081106074 0.37261075 0.105291754 0.32359973 -0.09470782
-0.23275474 0.29827783 -0.015920788 -0.11092523 0.223051 0.18114318 -0.25245726 -0.019853473
-0.09728572 0.13264613 0.079735845 -0.17312796 -0.049478374 0.16148047 0.038425423 -0.08905857
-0.075552255 0.19999819 -0.2539811 -0.1071443 -0.008490101 -0.19374305 -0.22825927 -0.034429766
-0.24931197 0.020054627 -0.16032472 0.1545572 0.10780686 0.35618407 -0.16996975 -0.12188104
0.13115124 -0.28096113 -0.09827496 -0.00876241 0.0031216394 0.052406978 0.017024396 0.032227885

fc3.bias f4 [4]
00000000: cdac 913e 0575 763e a3cd 6f3e f661 113e
0.2845215 0.24068077 0.23418288 0.14197525
